…
2023-11-02 13:51:31,466 (tts:295) INFO: ARGS: use_second_target: False
2023-11-02 13:51:31,466 (tts:295) INFO: ARGS: use_speaker_embedding: True
2023-11-02 13:51:31,466 (tts:295) INFO: ARGS: use_weighted_masking: False
2023-11-02 13:51:31,466 (tts:295) INFO: ARGS: valid_json: dump/dev/data.json
2023-11-02 13:51:31,466 (tts:295) INFO: ARGS: verbose: 1
2023-11-02 13:51:31,466 (tts:295) INFO: ARGS: version: 202310
2023-11-02 13:51:31,466 (tts:295) INFO: ARGS: weight_decay: 0.0
2023-11-02 13:51:31,466 (tts:295) INFO: ARGS: zoneout_rate: 0.1
2023-11-02 13:51:31,764 (tts:304) INFO: Tacotron2(
  (enc): Encoder(
    (embed): Embedding(27, 10, padding_idx=0)
    (convs): ModuleList(
      (0): Sequential(
        (0): Conv1d(10, 10, kernel_size=(5,), stride=(1,), padding=(2,), bias=False)
        (1): BatchNorm1d(10, eps=1e-05, momentum=0.1, affine=True, track_running_stats=True)
        (2): ReLU()
        (3): Dropout(p=0.5, inplace=False)
      )
    )
    (blstm): LSTM(10, 5, batch_first=True, bidirectional=True)
  )
  (dec): Decoder(
    (att): AttLoc(
      (mlp_enc): Linear(in_features=522, out_features=128, bias=True)
      (mlp_dec): Linear(in_features=10, out_features=128, bias=False)
      (mlp_att): Linear(in_features=32, out_features=128, bias=False)
      (loc_conv): Conv2d(1, 32, kernel_size=(1, 31), stride=(1, 1), padding=(0, 15), bias=False)
      (gvec): Linear(in_features=128, out_features=1, bias=True)
    )
    (lstm): ModuleList(
      (0): ZoneOutCell(
        (cell): LSTMCell(532, 10)
      )
    )
    (prenet): Prenet(
      (prenet): ModuleList(
        (0): Sequential(
          (0): Linear(in_features=80, out_features=10, bias=True)
          (1): ReLU()
        )
      )
    )
    (postnet): Postnet(
      (postnet): ModuleList(
        (0): Sequential(
          (0): Conv1d(80, 80, kernel_size=(1,), stride=(1,), bias=False)
          (1): BatchNorm1d(80, eps=1e-05, momentum=0.1, affine=True, track_running_stats=True)
          (2): Dropout(p=0.5, inplace=False)
        )
      )
    )
    (feat_out): Linear(in_features=532, out_features=160, bias=False)
    (prob_out): Linear(in_features=532, out_features=2, bias=True)
  )
  (taco2_loss): Tacotron2Loss(
    (l1_criterion): L1Loss()
    (mse_criterion): MSELoss()
    (bce_criterion): BCEWithLogitsLoss()
  )
)
2023-11-02 13:51:31,777 (tts:337) WARNING: num. model params: 190,227 (num. trained: 190,227 (100.0%))
2023-11-02 13:51:31,870 (batchfy:433) INFO: count is auto detected as seq
2023-11-02 13:51:31,870 (batchfy:457) INFO: # utts: 255
…
