…
2023-11-02 17:23:18,473 (tts:571) INFO: args: out: exp/train_pytorch_train_pytorch_tacotron2+spkemb/outputs_model.last1.avg.best_decode/dev/feats.2
2023-11-02 17:23:18,473 (tts:571) INFO: args: preprocess_conf: None
2023-11-02 17:23:18,473 (tts:571) INFO: args: save_durations: False
2023-11-02 17:23:18,473 (tts:571) INFO: args: save_focus_rates: False
2023-11-02 17:23:18,473 (tts:571) INFO: args: seed: 1
2023-11-02 17:23:18,473 (tts:571) INFO: args: threshold: 0.5
2023-11-02 17:23:18,473 (tts:571) INFO: args: use_att_constraint: False
2023-11-02 17:23:18,473 (tts:571) INFO: args: verbose: 1
2023-11-02 17:23:18,503 (tts:577) INFO: Tacotron2(
  (enc): Encoder(
    (embed): Embedding(27, 10, padding_idx=0)
    (convs): ModuleList(
      (0): Sequential(
        (0): Conv1d(10, 10, kernel_size=(5,), stride=(1,), padding=(2,), bias=False)
        (1): BatchNorm1d(10, eps=1e-05, momentum=0.1, affine=True, track_running_stats=True)
        (2): ReLU()
        (3): Dropout(p=0.5, inplace=False)
      )
    )
    (blstm): LSTM(10, 5, batch_first=True, bidirectional=True)
  )
  (dec): Decoder(
    (att): AttLoc(
      (mlp_enc): Linear(in_features=522, out_features=128, bias=True)
      (mlp_dec): Linear(in_features=10, out_features=128, bias=False)
      (mlp_att): Linear(in_features=32, out_features=128, bias=False)
      (loc_conv): Conv2d(1, 32, kernel_size=(1, 31), stride=(1, 1), padding=(0, 15), bias=False)
      (gvec): Linear(in_features=128, out_features=1, bias=True)
    )
    (lstm): ModuleList(
      (0): ZoneOutCell(
        (cell): LSTMCell(532, 10)
      )
    )
    (prenet): Prenet(
      (prenet): ModuleList(
        (0): Sequential(
          (0): Linear(in_features=80, out_features=10, bias=True)
          (1): ReLU()
        )
      )
    )
    (postnet): Postnet(
      (postnet): ModuleList(
        (0): Sequential(
          (0): Conv1d(80, 80, kernel_size=(1,), stride=(1,), bias=False)
          (1): BatchNorm1d(80, eps=1e-05, momentum=0.1, affine=True, track_running_stats=True)
          (2): Dropout(p=0.5, inplace=False)
        )
      )
    )
    (feat_out): Linear(in_features=532, out_features=160, bias=False)
    (prob_out): Linear(in_features=532, out_features=2, bias=True)
  )
  (taco2_loss): Tacotron2Loss(
    (l1_criterion): L1Loss()
    (mse_criterion): MSELoss()
    (bce_criterion): BCEWithLogitsLoss()
  )
)
2023-11-02 17:23:18,512 (tts:580) INFO: reading model parameters from exp/train_pytorch_train_pytorch_tacotron2+spkemb/results/model.last1.avg.best
/home/ananth/espnet/espnet/tts/pytorch_backend/tts.py:704: UserWar
…
